model2.pt (torch_old, 689681 bytes, 13 tensors)

weight f4 [32, 32]
00000000: 0dbd a4ba bd7f ccb3 a671 0000 1874 af32
00000010: 3357 16b4 8a29 0100 a889 b338 a480 1135
00000020: bbd3 6eb5 f32f 8fb6 0f0d d12a 34b6 82b8
00000030: 8c26 3bb9 4328 0080 5d60 9ab8 1fa0 0100
00000040: adb6 3cab 316e 0833 bd40 bbb5 0f26 b6b0
00000050: 38f1 fba9 aec2 a1b7 2c42 c934 d7f5 6530
00000060: 7c0c a0ad dfbe 0600 bf0f 892d 9512 0080
00000070: 7022 0200 e6b4 0000 efbe 0f96 bea7 cfb2
00000080: afed 6339 1f26 0000 bb04 9634 5b24 c5af
00000090: 4c39 39b0 1026 72b5 fa9b 6bac 8e3a 87ae
000000a0: 1f65 c3b0 a585 bd2f 89d6 2a2d c87f c539
000000b0: 7e53 bbb9 5633 e3b1 5990 77ba e4d5 c5b2
000000c0: 468a d926 00f7 c6b9 20cf 6632 96e4 d12e
000000d0: 4d0e b418 5d3c a63a f334 99ad 95a8 763c
000000e0: cbeb c5ba f88a 1eaf acdc 2930 dcdc 9fb9
000000f0: 63eb 5930 4eb0 bbb2 a7bc 87ae 790b 2531
00000100: 44b0 bebb 0800 cf2d 1877 d7af e16a 1db0
00000110: db22 88b9 b8d4 18b3 97e6 a931 8075 6fa1
00000120: 906c fc2d acb7 2a36 2018 02ad 4c51 0100
00000130: c434 26bc bf74 25b7 d18f 74ba ab13 0eb5
00000140: 77ff c6af 5a6f 0080 103f c03a a913 6435
00000150: 6e95 1a2a 20e8 2db4 9fad 5330 da1e 52ba
00000160: 837b 13b4 837e 0080 eebc 16b7 8053 69b9
00000170: aabb 4530 f16c e937 ed35 c32e dce4 69b2
00000180: 481f 81b8 eba5 0280 19c0 6c2d fccf 0180
00000190: 3a85 5ab0 d736 74b1 4ba2 3fb1 46db a68c
000001a0: 75bd 0100 857d 90b0 fb7b 132e d4d6 3f33
000001b0: ca76 92b8 528c c02b 1a8d 8cb8 e5c3 d135
000001c0: a65b fbab 5e97 122d 3320 18b6 b07e 3cab
000001d0: 77e1 0fb9 18e4 7f37 d90e f837 3451 193b
000001e0: 275f cfb9 311c 05aa b473 2db2 84ff 90a9
000001f0: 5e2d a3a6 9a19 8db2 3c98 c536 13eb c02e
00000200: 4dca 43b8 522e b1aa b8b8 0000 3662 04a7
00000210: 4bbd c397 1e59 eeb7 b740 a7a8 a1a3 d436
00000220: 254d adb4 bba1 22b5 fb90 2bb9 8ed8 dc2c
00000230: cee4 b0b9 50c7 0eae 270c 28b9 0c16 dfaf
00000240: 497a 18b1 7c80 a135 7b26 f8a0 fc2f e130
00000250: 3602 a329 03ad ebb8 9b53 ddab 9ad3 d33b
00000260: f769 0e35 3d26 37b5 1ae3 233a 87fd 81af
00000270: b74e ba20 42b1 ef30 f08e b1b6 9bd0 9338
00000280: f240 afb3 8ea9 2eb9 ac8f 7d34 6ddd 3b2e
00000290: 5815 571e cf7a 02b3 f8ec cb2e 605a adb7
000002a0: 6b01 c931 2811 9138 1580 a8ae 427f df33
000002b0: e0ac a2b3 c5f6 71b2 b565 98b4 6df2 34b8
000002c0: 05c0 0eb2 6a75 d82c 0cf4 472d c7dc c133
000002d0: 74d4 9831 186e 09b0 ee94 a1b5 f3c1 9432
000002e0: 54d1 8130 a9eb 51ac 51e3 b7ad 9b38 b338
000002f0: 1d04 b435 bbde 0080 70c8 b82e 269a 93ad
00000300: 9d71 f4a1 1fed 0100 3953 75b0 fbbf 0bb5
00000310: 132f 03ad a451 cf2f ba9e f3ba 53f3 0000
00000320: 8bf3 0080 42f1 942e 9643 73b7 26dd 9dae
00000330: 7bc5 afb2 082f 832e d22c a0b7 1e58 3eab
00000340: 26d7 80b0 e193 89b9 5044 6a24 def1 a534
00000350: 5eba 732b c29e 0c33 e01b 0680 2cc8 0080
00000360: ec2c b5af 1bb1 2000 eb4e ed26 e785 5135
00000370: 05ce 73b8 cd84 9135 6a92 993a 2c73 d9ac
00000380: b480 18b9 8c20 0000 1749 9fb4 d014 53b8
00000390: 81a0 a4b7 14cd 0080 8fb2 4630 4ee9 8d2e
000003a0: b0c4 da2b 85fb f7b3 391a e3b9 9f3d 0639
000003b0: 2529 a5ba 38d3 1b23 51b7 aebc 9b6d 9635
000003c0: 8d3f 9f2c 7804 a434 c337 1733 802a 8132
000003d0: ced3 e32b e4e8 2f35 83e7 0636 4e85 032e
000003e0: b6ff d82e d3d6 10b7 9faa 9b32 e164 b034
000003f0: f757 96af 6bce 972e 5db9 5323 5d8c 87b7
-0.0012568549 -9.522726e-08 4.077e-41 2.0425475e-08 -1.4001562e-07 1.06737e-40 8.5610256e-05 5.4203906e-07
-8.897002e-07 -4.267314e-06 3.713492e-13 -6.232821e-05 -0.0001784807 -1.4443e-41 -7.361241e-05 1.49276e-40
-6.704453e-13 3.1765186e-08 -1.3951427e-06 -1.325306e-09 -1.1188484e-13 -1.928335e-05 3.7487314e-07 8.3659074e-10
-1.8195438e-11 6.19485e-40 1.558209e-11 -6.666e-42 1.96025e-40 6.4894e-41 -1.1611696e-25 -2.4174252e-08
0.00021736951 1.3675e-41 2.794312e-07 -3.5859923e-10 -6.738403e-10 -9.0207413e-07 -3.3482093e-12 -6.1494906e-11
-1.4216858e-09 3.447386e-10 9.711018e-12 0.00037669973 -0.00035729626 -6.6124057e-09 -0.0009443812 -2.3031085e-08
1.5094879e-15 -0.00037949532 1.3434857e-08 9.5448247e-11 4.654335e-24 0.0012682785 -1.74176e-11 0.0150548415
-0.0015100179 -1.4419388e-10 6.1795435e-10 -0.00030491396 7.9278645e-10 -2.184984e-08 -6.1726006e-11 2.4017182e-09
-0.0058193523 2.353319e-11 -3.9192893e-10 -5.726815e-10 -0.0002596591 -3.5583724e-08 4.9447624e-09 -8.113186e-19
2.8697295e-11 2.5438885e-06 -7.395001e-12 1.21e-40 -0.010144416 -9.8619485e-06 -0.00093292916 -5.2927743e-07
-3.619751e-10 -3.9945e-41 0.0014667232 8.496523e-07 1.3729792e-13 -1.6196327e-07 7.7008083e-10 -0.00080154615
-1.3735375e-07 -4.5384e-41 -8.984685e-06 -0.00022251718 7.193487e-10 2.7826494e-05 8.8771525e-11 -1.3614422e-08
-6.157026e-05 -2.43191e-40 1.3457701e-11 -1.66446e-40 -7.9497264e-10 -3.5537846e-09 -2.788641e-09 -2.570832e-31
1.598e-40 -1.0513054e-09 3.3534047e-11 4.4666038e-08 -6.983949e-05 1.3681367e-12 -6.7020024e-05 1.5628726e-06
-1.786006e-12 8.332749e-12 -2.2668507e-06 -6.696683e-13 -0.00013721535 1.5252292e-05 2.9570818e-05 0.0023394348
-0.0003955301 -1.1822554e-13 -1.0096233e-08 -6.4392095e-14 -1.1322694e-15 -1.6426203e-08 5.88878e-06 8.772907e-11
-4.668003e-05 -3.1473657e-13 6.6265e-41 -1.837192e-15 -1.2649364e-24 -2.841331e-05 -1.856879e-14 6.3371413e-06
-3.227989e-07 -6.058505e-07 -0.0001636184 6.2768185e-12 -0.0003373981 -3.2464087e-11 -0.00016026256 -4.057913e-10
-2.2188422e-09 1.2032829e-06 -4.2038298e-19 1.6384543e-09 7.2390377e-14 -0.00011237899 -1.57262e-12 0.006464434
5.305332e-07 -6.8228456e-07 0.00062517973 -2.3645105e-10 3.1561715e-19 1.7439918e-09 -5.291651e-06 7.048362e-05
-8.160886e-08 -0.00016657097 2.3614729e-07 4.2715543e-11 1.1386419e-20 -3.0379677e-08 9.273465e-11 -2.0665291e-05
5.850031e-09 6.9173344e-05 -7.6625074e-11 1.0407395e-07 -7.5751586e-08 -1.4084155e-08 -2.8386208e-07 -4.314112e-05
-8.309148e-09 6.152125e-12 1.136603e-11 9.027422e-08 4.4479354e-09 -4.999676e-10 -1.2038779e-06 1.7317666e-08
9.44548e-10 -2.9831504e-12 -2.090564e-11 8.545929e-05 1.3412242e-06 -7.99e-41 8.402956e-11 -1.678042e-11
-1.6564156e-18 1.76899e-40 -8.924875e-10 -5.2060903e-07 -7.4569404e-12 3.771109e-10 -0.0018586733 8.7288e-41
-8.7367e-41 6.773117e-11 -1.4499665e-05 -7.178817e-11 -2.0462485e-08 5.965545e-11 -1.9094357e-05 -6.7623847e-13
-9.374375e-10 -0.00026240855 5.0798525e-17 3.0909627e-07 8.658958e-13 3.274068e-08 -5.61013e-40 -7.1808e-41
-3.2955627e-10 3.00227e-39 1.6466569e-15 7.805342e-07 -5.8127585e-05 1.0841992e-06 0.0011716608 -6.1802976e-12
-0.00014543795 1.1676e-41 -2.9669238e-07 -5.0325703e-05 -1.9625064e-05 -7.3568e-41 7.228573e-10 6.453381e-11
1.5544423e-12 -1.1547585e-07 -0.0004331635 0.00012802191 -0.0012600763 8.447294e-18 -0.021327646 1.120777e-06
4.5261074e-12 3.0550632e-07 3.5208142e-08 1.5036903e-08 1.6188108e-12 6.553148e-07 2.0102314e-06 2.990435e-11
9.867966e-11 -8.6330865e-06 1.8121964e-08 3.2855954e-07 -2.7347344e-10 6.903352e-11 1.1477585e-17 -1.6158616e-05

bias f4 [32]
00000000: 87e0 19bc 268f b7ba 3265 a2bd 8fc4 0bb9
00000010: 41b3 1ab9 17d5 1ab4 bc08 a9ba e12d 0ebd
00000020: 7946 a0ba e71b 21bd 4b2c e0b4 802e 25b8
00000030: 1d4c efbb c79c 0eb1 6787 d2b8 9914 0bbc
00000040: f5fd e8b7 d1d8 c3b6 21da e1ba 9837 09b6
00000050: 9043 bdb5 48ae 1abb 6974 04b8 0e32 f6bc
00000060: bfd8 3eba 877c cabd 1237 2fb4 0ae0 1fb4
00000070: 347a 29be ece6 96be 5f0a 7bb4 32f0 01b9
-0.00939191 -0.0014004454 -0.07929458 -0.00013329297 -0.00014753362 -1.4419889e-07 -0.001289628 -0.034711722
-0.0012228034 -0.03933325 -4.175548e-07 -3.9382372e-05 -0.0073027746 -2.0752837e-09 -0.00010038801 -0.008488798
-2.7774813e-05 -5.8366936e-06 -0.0017231145 -2.044695e-06 -1.4101261e-06 -0.0023602415 -3.1579668e-05 -0.030053165
-0.00072802225 -0.09887033 -1.631818e-07 -1.4889534e-07 -0.16550523 -0.29473054 -2.337997e-07 -0.00012391878

weight f4 [32, 32]
00000000: 6282 a3b5 4d89 acb1 b9ee 40b0 4905 1c8f
00000010: 4418 0180 371e 37b8 62cb 57b7 8eae 68b4
00000020: b639 0080 b4a9 ecaa a3d6 0b36 cd95 ce33
00000030: dddb 5b31 279b 0a2e d3c2 09ad 429b 0000
00000040: 229d 1f33 f254 e22c a169 27b7 8fe1 5a16
00000050: bdb0 d832 7430 a430 7521 0280 86ae 29b5
00000060: 3675 a6ba 963c 8d33 754a 6330 5aed 9337
00000070: d11a 6db2 1295 8d36 48ee 2fb8 0510 942d
00000080: 0157 afb6 fa22 4f39 375f 823b 13a5 56b6
00000090: 5bef 5038 3236 c03e fbae 6ab4 3518 e8a4
000000a0: 9827 f489 5904 e4a7 13c0 113b ee71 009c
000000b0: 0683 07b5 5973 2eae 2f3a b5bb f807 082c
000000c0: 6b19 e029 97c2 1cbe 6990 ecb4 476a c9b9
000000d0: a13d 023c 7d4a 3034 806e 672b e62f 5e32
000000e0: 77ae e3be 9988 02b1 ad5c ceb6 1ce8 4e35
000000f0: 12bf 97b9 a8fd a480 2572 0cbf 94bd 6928
00000100: 9d4f 47aa 92cd 3839 b6f2 dfb2 a42e 32b4
00000110: f4a2 0180 e6eb 94b3 555d 39b2 5650 9f2f
00000120: 27eb 1eb7 7cad 5c99 505a 6eb5 6454 d3b0
00000130: 2164 40ba 7a21 1d2c 9189 7639 176c 92b6
00000140: 7f51 c3ac 919d d5b8 6afb 522e 53a4 b6b5
00000150: 6609 6b2f fdc2 6dba ce96 e3b5 ea99 56ba
00000160: 5666 8333 47d8 e294 802f 85af bece 0a38
00000170: d010 ac33 9014 bbad d282 7834 5e62 e838
00000180: 75e5 41ae c4a3 c9af 768c b3b8 c4ae bf36
00000190: 12a0 c8b0 f98b 00ba fbf9 90b7 c82f 6536
000001a0: 50c7 5d2f 6884 40b4 c9d4 b82a be33 9a11
000001b0: 805a 0180 5968 8e3a 5af3 feab 3dfc 0eb5
000001c0: 7358 71b6 d894 9c39 295e 04b6 b8ab 812d
000001d0: a5d5 4d31 bcfa 832e ee4f 1931 f005 a0ac
000001e0: 0c17 88bb 5577 e1a5 ba0c 0936 bdc4 0d2e
000001f0: 4e2e 3d3a 754f 28b1 2d06 c2ba 6860 b1b2
00000200: 468c c8b6 8c8d adb8 6acb 5130 31cb 5b84
00000210: 8bc4 9d36 1029 2532 b37d ff29 4489 8624
00000220: 64ac d439 bec9 562f 97b6 6f3a 1881 5e31
00000230: 09b1 27b0 6ff4 c134 20fa be2d 6846 f92c
00000240: 9abb 0bb9 1b56 e730 4c3c f2b2 00d5 5332
00000250: c1c0 41a5 768d 6fb5 0e92 c031 e90c 6b32
00000260: 548c 84b2 8aa3 5db4 8fec 24ae 6688 7137
00000270: 92bc b3b2 c245 8bac dacc 64b2 1470 9ab9
00000280: ef9e 9ab0 2a3e 0080 bbd4 aea9 306c 41b3
00000290: 4ab9 982d 05dc 3dae 266f 16b4 e3f8 2033
000002a0: 5519 5bb0 df30 38b8 771d 1f3a 341e db2f
000002b0: 4b28 52b2 f8c7 0100 3128 0934 3ad4 1cb9
000002c0: f540 2aac 2fcb 7c33 75f5 a1b5 ff10 952c
000002d0: bfc4 0aab 701c 94b1 b5ec 4a31 8357 22b6
000002e0: 8135 ab2d eb11 9e2e f9f1 8836 8afc 7f39
000002f0: 2bd8 b833 869d c1b0 2e96 182d 887f f3ab
00000300: 2db4 2b35 a7c8 0439 e15f 5eb6 edfd 7498
00000310: bb1e 0080 7922 eeb2 ef83 f697 6fa5 a42d
00000320: 6fd3 0080 e6cf 01b4 17be 7fae ba3b 0000
00000330: 1898 bc34 10f5 8535 8d7f 9137 faac 88b1
00000340: c36d 12b2 0b29 0cb3 e5b8 6899 82b0 2932
00000350: 458c b0b5 3a44 13b7 402c b0b9 5bac 0c2f
00000360: 0c37 84b2 c83d 64ac c88c 4fb4 ac18 59ac
00000370: 21f6 7b1a 0708 e1af 823a 8931 6bb5 182f
00000380: 9cbc ddb2 e370 0000 c0fd 972a 3661 b2b1
00000390: a814 0080 cb11 ca04 562b f430 793c 0000
000003a0: 5d2e 0000 3468 b636 b5db 84b4 9b2a 05b5
000003b0: 9697 bbb0 0355 27ac 895f 0136 5abe 7e36
000003c0: 6f2b de35 06db 0200 283f 8f36 2b40 2f38
000003d0: 56ca cb33 fe9b 10b8 bc1d e830 2024 9cb1
000003e0: 2d87 d72d d4f3 06b6 8b1e bdae b1d4 032e
000003f0: 2e08 792e 30a7 18b5 ef64 84b0 f537 0100
-1.2182393e-06 -5.021468e-09 -7.018844e-10 -7.692412e-30 -1.0054e-40 -4.365874e-05 -1.2862352e-05 -2.1670186e-07
-2.0703e-41 -4.2039777e-13 2.083755e-06 9.619871e-08 3.1993672e-09 3.151537e-11 -7.830808e-12 5.5696e-41
3.7162984e-08 6.432737e-12 -9.978569e-06 1.7681074e-25 2.522608e-08 1.1946342e-09 -1.95673e-40 -6.321137e-07
-0.0012699727 6.576845e-08 8.268793e-10 1.7634291e-05 -1.3801313e-08 4.2194815e-06 -4.1945168e-05 1.6832766e-11
-5.225535e-06 0.00019754088 0.0039786357 -3.198457e-06 4.981398e-05 0.37541348 -2.1856606e-07 -1.0065497e-16
-5.8778097e-33 -6.3287426e-15 0.002223973 -4.24989e-22 -5.0482083e-07 -3.966547e-11 -0.0055306177 1.9331186e-12
9.9520076e-14 -0.15308605 -4.4063498e-07 -0.0003841689 0.007949264 1.6418376e-07 8.2221036e-13 1.2932992e-08
-0.44469044 -1.8995137e-09 -6.1500673e-06 7.7078744e-07 -0.00028943323 -1.5152016e-38 -0.5486167 1.29752064e-14
-1.7702372e-13 0.00017624188 -2.6070989e-08 -1.659451e-07 -1.50292e-40 -6.934697e-08 -1.07896385e-08 2.8979014e-10
-9.472285e-06 -1.1408768e-23 -8.879333e-07 -1.5376256e-09 -0.0007339139 2.2329625e-12 0.00023511636 -4.3637224e-06
-5.5512812e-12 -0.000101859805 4.7971772e-11 -1.3607881e-06 2.1376464e-10 -0.0009069888 -1.6956708e-06 -0.0008186387
6.118778e-08 -2.2905475e-26 -2.422631e-10 3.3094308e-05 8.012432e-08 -2.126857e-11 2.3144392e-07 0.000110809444
-4.4086918e-11 -3.667805e-10 -8.561548e-05 5.712589e-06 -1.459741e-09 -0.000490367 -1.7282544e-05 3.4151471e-06
2.0170643e-10 -1.7929563e-07 3.2832615e-13 2.4328804e-28 -1.24301e-40 0.0010864838 -1.8115329e-12 -5.326618e-07
-3.5963283e-06 0.00029865536 -1.9724341e-06 1.474186e-11 2.995287e-09 6.00173e-11 2.2309865e-09 -4.5481327e-12
-0.004153138 -3.911214e-16 2.0421999e-06 3.2234427e-11 0.0007216678 -2.4492384e-09 -0.0014802866 -2.0649352e-08
-5.9767945e-06 -8.275648e-05 7.6322826e-10 -2.5836627e-36 4.7018452e-06 9.613601e-09 1.134608e-13 5.8345773e-17
0.00040564232 1.953486e-10 0.00091443345 3.2378633e-09 -6.100583e-10 3.61269e-07 2.1711577e-11 7.0848223e-12
-0.0001332596 1.6831935e-09 -2.8199928e-08 1.2330247e-08 -1.6805389e-16 -8.924029e-07 5.60454e-09 1.3681736e-08
-1.5430636e-08 -2.0641724e-07 -3.749939e-11 1.4396477e-05 -2.0924094e-08 -3.9583623e-12 -1.33179245e-08 -0.00029456674
-1.1250146e-09 -2.23e-41 -7.764055e-14 -4.503471e-08 1.7362684e-11 -4.316904e-11 -1.4010274e-07 3.7479264e-08
-7.9707735e-10 -4.3914533e-05 0.0006069759 3.9857329e-10 -1.223277e-08 1.63571e-40 1.2773741e-07 -0.0001495638
-2.4194511e-12 5.8858117e-08 -1.2066872e-06 4.2367217e-12 -4.930049e-13 -4.3106e-09 2.9529421e-09 -2.419082e-06
1.946421e-11 7.188191e-11 4.081285e-06 0.00024412773 8.6074884e-08 -1.4087369e-09 8.673546e-12 -1.7301586e-12
6.3964654e-07 0.0001266325 -3.3136387e-06 -3.166446e-24 -1.1024e-41 -2.7722523e-08 -1.5930682e-24 1.8718109e-11
-7.5848e-41 -1.2089694e-07 -5.814912e-11 2.1426e-41 3.5128392e-07 9.980595e-07 1.7344742e-05 -3.977786e-09
-8.523275e-09 -3.263362e-08 -1.2031458e-23 9.877228e-09 -1.3153846e-06 -8.777768e-06 -0.00033602305 1.2794159e-10
-1.5391855e-08 -3.2435044e-12 -1.9329593e-07 -3.085125e-12 5.2104405e-23 -4.0932965e-10 3.9938763e-09 1.3888772e-10
-2.5813556e-08 4.0496e-41 2.6999063e-13 -5.1915334e-09 -7.41e-42 4.7506312e-36 1.7765653e-09 2.1694e-41
1.6632e-41 5.4361535e-06 -2.4746774e-07 -4.960836e-07 -1.3649124e-09 -2.3779318e-12 1.9278107e-06 3.7959749e-06
1.655293e-06 2.62242e-40 4.2690845e-06 4.1783012e-05 9.489729e-08 -3.4477554e-05 1.6888673e-09 -4.5443045e-09
2.45027e-11 -2.0109483e-06 -8.6001505e-11 2.997486e-11 5.662331e-11 -5.68677e-07 -9.632951e-10 1.11909e-40

bias f4 [32]
00000000: a386 52bd 368e c13d 0960 57b6 1394 fbbd
00000010: 89e0 01b4 f82d 06b5 9691 9ab7 7e8c 07b5
00000020: 8e52 c1b5 9295 61b9 79a6 6cba d63f 71b9
00000030: 0845 68bc 01bd 57b8 0704 50b7 20cb d4bc
00000040: 3787 f13d 29cc 5fb9 5a04 32bc 1122 88b7
00000050: 0cef 1ab8 8c27 93b8 829d f2b8 4935 67ba
00000060: db99 d4b5 07b1 17b7 97d6 40bc fa5b 63be
00000070: 78c2 c83d 1182 2db7 9eb0 11bc 048c 4fb8
-0.05139793 0.09450953 -3.2093396e-06 -0.12284102 -1.2095747e-07 -4.9985783e-07 -1.8426024e-05 -5.049586e-07
-1.4403647e-06 -0.00021513391 -0.0009027492 -0.00023007332 -0.014176615 -5.1436018e-05 -1.2398704e-05 -0.025975764
0.11793368 -0.00021342993 -0.010865295 -1.6228327e-05 -3.693909e-05 -7.0168724e-05 -0.00011568797 -0.0008819891
-1.5840009e-06 -9.041519e-06 -0.011769912 -0.22203055 0.09802717 -1.0341887e-05 -0.0088922065 -4.9483046e-05

weight f4 [12, 32]
00000000: 5a00 26be 4e30 0080 998f 8d8f 37d5 9908
00000010: 0591 5ebb 8e14 3fa2 54c9 83ab 905c 0fa4
00000020: 531f 0000 8ee7 5d8c 940f 80ac c204 c22d
00000030: d60e 19be 9a07 0080 9435 1cbe 9d22 0000
00000040: 5191 de2e e019 0080 9c98 01b7 2d3c bb2c
00000050: 3c78 1d2d 39c7 06be 0a0f 821a dc3f abba
00000060: e40d 0526 f6bc f3a3 de07 0000 2917 0080
00000070: f721 0080 2d29 0000 f0e9 19b6 1f4b 0526
00000080: bf24 58be d40d 0080 cad4 d902 bb96 0d9e
00000090: 44d8 51b7 b20d f910 9f2a 5722 f89e 5225
000000a0: bf20 0080 0615 0080 4d3a 13b0 d58f 122b
000000b0: 164d 62be 8f02 0080 d425 d5bd 3922 0000
000000c0: 47be a52e 8322 0000 d806 0abc 5ca5 7231
000000d0: 7a7f 08ac 2f1e 8dbe ac96 ab18 fdbd 9cbd
000000e0: 1aaa 65b2 7fb1 9801 7d23 0000 6706 0000
000000f0: 8211 5016 4601 0080 cb92 ad99 c48b c227
00000100: dd11 bcbd 5d32 0080 d304 0080 934d cfa1
00000110: 17e1 1caf 5d2c 0080 35c7 6423 bc26 bb24
00000120: 2034 0080 bc2f 0080 67e6 2eae 1559 d729
00000130: 2e2e 30be 1230 0080 e68a c33c af12 0080
00000140: 69e0 d52d 662b 0080 509b 4634 01eb bf2e
00000150: 83a1 21aa e6b1 f3bc 9a91 1b19 797e f9bc
00000160: a3c4 a625 5b13 1c00 3536 0000 a618 0080
00000170: 3f13 0080 9022 0080 6781 8797 b40a a129
00000180: e2b2 e0bd 6118 0000 e41c 0000 f268 e605
00000190: 0118 ba30 d326 0080 5ae5 51a3 62a4 0ba5
000001a0: f82d 0000 6d27 0000 adc8 d92c 4267 582a
000001b0: 10ab dfbd fc0d 0000 d73c 63bd 8d14 0000
000001c0: 8e95 edad e01d 0000 4677 9133 9a12 12af
000001d0: e47b 2d29 bf5f 9eba fa27 ba98 9919 40bd
000001e0: a37e a8a4 bd9f 5300 1055 0080 aa41 0000
000001f0: 0e2b 0000 e207 0000 7d0c 6298 955f a527
00000200: 27d0 a3bb 5b0e 0080 1319 14b1 6121 0f09
00000210: 2503 8bbd ca35 afb5 d948 23ad c042 2625
00000220: 5903 0080 39e7 47b5 b593 9cb1 63f9 65af
00000230: c8ef c7bb 1b5a 06a8 797e 23bc a616 0000
00000240: 79b2 a2b2 ec25 0000 1b97 3dbd 8e2d efb0
00000250: 2daa d9b9 48f9 9dbe 63db d0b7 b093 a13c
00000260: 374c e8b6 57cd e6b7 dd20 d20b 790f 97a6
00000270: eb95 048e 031e 0000 e574 b8b7 2031 7626
00000280: 1a69 c4bc 8913 0000 7814 0080 b67e 7208
00000290: d479 04b5 d90c 0000 fe40 4da1 8d46 dca4
000002a0: 4325 0080 6110 0000 a48e 8e30 18cc d4a9
000002b0: 876e e1bb e228 0080 ef0a 583d 3420 0080
000002c0: be24 8fae 7308 0080 5960 a135 b6a6 63af
000002d0: 9fa9 d82b a250 73bd a29b 1898 ad79 d2ba
000002e0: aba9 5e24 1a22 0280 6a29 0080 092d 0080
000002f0: dd12 0000 9e22 0080 ccc2 ab95 d6ff 80a8
00000300: cf49 9abe 5f0f 0000 b80a 0f02 8d95 251f
00000310: 9785 daba 1a25 0000 50db 3eab 836f ae24
00000320: fc14 0080 82cb 6501 fe2b 6f2f 9597 d1ad
00000330: 852c 263f af20 0000 71d6 a3bf 0c09 0080
00000340: 627f 2a2f a80b 0000 cba7 12b5 64a3 07b1
00000350: 1e74 e82a 2be8 5dbe 2212 da98 876d a1bd
00000360: 1c0c 9ea5 abbf 4680 dd18 0080 8627 0000
00000370: b718 0080 f916 0000 9f8f 312e 2373 0d26
00000380: 4c5b 583f b12a 0080 2718 0000 e53d 2987
00000390: cbd2 93b5 aefd 4189 5a41 4daa 6635 e4a4
000003a0: d622 0000 7c2b 0000 b0a5 58ae 6fab 22ac
000003b0: 82f1 aebf 5422 0000 d6f3 a53d e528 0000
000003c0: d6b6 de2e 0517 0080 6d02 cfba 493e e030
000003d0: 0bab cfac 69aa f1b9 e635 ae98 adf0 a33c
000003e0: 6da2 7d26 37b7 0801 c628 0080 2420 0000
000003f0: 7d8b f601 2416 0080 e0dc 10ad 8d29 b7a6
-0.16211072 -1.7328e-41 -1.3958985e-29 9.258479e-34 -0.003396095 -2.5896208e-18 -9.36399e-13 -3.1086586e-17
1.1237e-41 -1.7094902e-31 -3.6397083e-12 2.205736e-11 -0.14947066 -2.727e-42 -0.15254813 1.2417e-41
1.01212046e-10 -9.282e-42 -7.724531e-06 5.3215405e-12 8.951114e-12 -0.13161935 5.3791037e-23 -0.0013065296
4.616247e-16 -2.6426141e-17 2.822e-42 -8.308e-42 -1.2184e-41 1.4771e-41 -2.2934946e-06 4.624545e-16
-0.21107768 -4.96e-42 3.200742e-37 -7.495648e-21 -1.2507724e-05 9.8234284e-29 2.9160497e-18 1.8268457e-16
-1.1747e-41 -7.542e-42 -5.356114e-10 5.2069227e-13 -0.22099718 -9.18e-43 -0.10407606 1.2277e-41
7.537131e-11 1.238e-41 -0.008424483 3.530963e-09 -1.9397526e-12 -0.2756209 4.4354604e-24 -0.07653425
-1.3368231e-08 5.6090676e-38 1.2731e-41 2.297e-42 1.6807631e-25 -4.57e-43 -1.794707e-23 5.399735e-15
-0.09183095 -1.8067e-41 -1.73e-42 -1.4047399e-18 -1.4268085e-10 -1.5915e-41 1.24020885e-17 8.116394e-17
-1.8699e-41 -1.7124e-41 -3.9767658e-11 9.563371e-14 -0.17205116 -1.7244e-41 0.023869943 -6.702e-42
2.4314955e-11 -1.5568e-41 1.849669e-07 8.7274195e-11 -1.4355708e-13 -0.029747915 8.042716e-24 -0.030455815
2.8929656e-16 2.578337e-39 1.9446e-41 -8.842e-42 -6.904e-42 -1.2399e-41 -8.756836e-25 7.151693e-14
-0.10971619 8.746e-42 1.0364e-41 2.1667647e-35 1.3540103e-09 -1.3928e-41 -1.137848e-17 -1.2112023e-16
1.649e-41 1.4143e-41 6.1897904e-12 1.9220479e-13 -0.109212995 5.017e-42 -0.055477943 7.372e-42
-2.7010196e-11 1.0717e-41 6.7737844e-08 -1.3285231e-10 3.8521175e-14 -0.0012082978 -4.812024e-24 -0.04689941
-7.307292e-17 7.67965e-39 -3.0515e-41 2.3556e-41 1.5445e-41 2.828e-42 -2.921612e-24 4.590033e-15
-0.004999179 -5.15e-42 -2.1551088e-09 1.7228694e-33 -0.06787709 -1.3054171e-06 -9.281653e-12 1.442082e-16
-1.201e-42 -7.446975e-07 -4.55699e-09 -2.0916029e-10 -0.006101582 -7.458033e-15 -0.009978884 8.125e-42
-1.8940442e-08 1.3604e-41 -0.046286684 -1.7402486e-09 -0.00041516256 -0.3085425 -2.4897692e-05 0.019723743
-6.9230114e-06 -2.7513755e-05 8.0938505e-32 -1.0481924e-15 -1.6342439e-30 1.0766e-41 -2.1988943e-05 8.541497e-16
-0.023975898 7.008e-42 -7.343e-42 7.2973174e-34 -4.9351115e-07 4.609e-42 -6.954272e-19 -9.552931e-17
-1.3367e-41 5.876e-42 1.0372401e-09 -9.450096e-14 -0.006879631 -1.4666e-41 0.052744802 -1.1552e-41
-6.509414e-11 -3.031e-42 1.2023476e-06 -2.0704757e-10 1.5394802e-12 -0.05940307 -1.9724114e-24 -0.0016057991
4.828229e-17 -1.95904e-40 -1.4857e-41 -1.6156e-41 6.767e-42 -1.2418e-41 -6.9373685e-26 -1.4321806e-14
-0.30134436 5.514e-42 1.0509057e-37 3.5063815e-20 -0.0016671893 1.331e-41 -6.7805917e-13 7.564938e-17
-7.528e-42 4.2206667e-38 2.1752553e-10 -2.3827865e-11 0.6491168 1.1725e-41 -1.2799817 -3.245e-42
1.5506665e-10 4.181e-42 -5.463341e-07 -1.9737962e-09 4.129205e-13 -0.21670596 -5.636999e-24 -0.07882219
-2.7416837e-16 -6.497242e-39 -8.919e-42 1.4178e-41 -8.866e-42 8.241e-42 4.03727e-11 4.907524e-16
0.8451431 -1.5315e-41 8.664e-42 -1.2732336e-34 -1.1013702e-06 -2.335081e-33 -1.8230331e-13 -9.89697e-17
1.2497e-41 1.5599e-41 -4.9259874e-11 -2.311675e-12 -1.3667452 1.2315e-41 0.08103149 1.467e-41
1.01278694e-10 -8.258e-42 -0.001579357 1.6315848e-09 -5.9022834e-12 -0.00046094068 -4.503237e-24 0.020012224
8.7997136e-16 2.5110705e-38 -1.4627e-41 1.153e-41 9.0566284e-38 -7.943e-42 -8.234496e-12 -1.2709438e-15

bias f4 [32]
00000000: 896a 2abe 2b1c 0000 2f4b 95a6 ce4e 1ea1
00000010: e896 14bd 145e 08ae 87b2 d42b a0ec ba25
00000020: e70b 0000 43c1 b19f 9f44 71b0 2a93 bb2d
00000030: fa8a 10be 44c2 7b87 1572 f9bc 2a0c 0080
00000040: 76cc e02f 1abc 1200 46a3 0abd ea9a e3b0
00000050: ed6e faad b2c8 9dbe 5b3e 149b 5b6d b3bd
00000060: a5a0 59b6 9eab 23a6 5417 0080 5220 0000
00000070: 2deb e19a 5845 9b9a c60c bdb6 c908 7ea8
-0.16642202 1.0105e-41 -1.035933e-15 -5.363678e-19 -0.036276728 -3.1006378e-11 1.5113057e-12 3.24262e-16
4.27e-42 -7.528214e-20 -8.7772806e-10 2.1324793e-11 -0.14115515 -1.8940231e-34 -0.030449906 -4.364e-42
4.089064e-10 1.720517e-39 -0.033847116 -1.6560453e-09 -2.847097e-11 -0.3081718 -1.2262421e-22 -0.08761092
-3.2429027e-06 -5.678457e-16 -8.369e-42 1.1594e-41 -9.3437766e-23 -6.421853e-23 -5.634126e-06 -1.4101737e-14

cached_result f4 [11174]
00000000: f304 353e 4a51 da3d ef5b f13d 2ef9 e43d
00000010: ffff ff3d 4a51 da3d ef5b f13d 3acd 933e
00000020: eb05 513e eed4 cd3d e644 c33d 8c2e ba3d
00000030: 4a51 da3d 6417 fc3d eed4 cd3d 6417 fc3d
00000040: 6a41 323e 6417 fc3d ef5b f13d 1fa6 183e
00000050: cfe0 d73d ef5b f13d eed4 cd3d 3a8e e33d
00000060: 2ef9 e43d a532 043e 68c8 f43d 2ef9 e43d
00000070: e644 c33d cfe0 d73d eb05 513e 4a51 da3d
00000080: ef5b f13d 6417 fc3d 6a41 323e 2b64 e93d
00000090: 6417 fc3d eed4 cd3d a311 453e 4859 0b3e
000000a0: ee5b 713e b301 1e3e aaaa 2a3e baf4 3a3e
000000b0: 3acd 933e 9be8 213e f304 353e ee5b 713e
000000c0: 2ef9 e43d a532 043e cdcc cc3d 2ef9 e43d
000000d0: cfe0 d73d cfe0 d73d e644 c33d baf4 ba3d
000000e0: 9be8 213e 9be8 213e 3acd 133e b301 1e3e
000000f0: 2ef9 e43d cfe0 d73d e644 c33d cfe0 d73d
00000100: baf4 ba3d 68c8 f43d baf4 3a3e c2d0 103e
00000110: 78d6 083e ef5b f13d ef5b f13d 4a51 da3d
00000120: eb05 d13d 0b03 013e 1fa6 183e 3a8e e33d
00000130: eed4 cd3d a311 c53d eed4 cd3d 0b03 013e
00000140: 1fa6 183e a311 c53d 7d13 0a3e 2b64 e93d
00000150: 6417 fc3d 2b64 e93d 6a41 b23d a532 043e
00000160: ee5b f13d 3acd 133e ee5b f13d 3acd 133e
00000170: a532 843e cccc 4c3e 2ef9 643e 2ef9 643e
00000180: 3acd 933e 6d16 2d3e 2649 123e 6d16 2d3e
00000190: 78d6 883e b301 1e3e 8374 5f3e b301 1e3e
000001a0: aaaa 2a3e 6d16 2d3e 9084 413e b301 1e3e
000001b0: aaaa 2a3e b301 1e3e 2ef9 643e b301 1e3e
000001c0: baf4 3a3e eb05 513e b301 1e3e b301 1e3e
000001d0: 6d16 2d3e aaaa 2a3e 2ef9 643e 6d16 2d3e
000001e0: b301 1e3e aaaa 2a3e 6d16 2d3e b301 1e3e
000001f0: ee5b 713e aaaa aa3e a532 843e f304 353e
00000200: 4a51 da3d ef5b f13d 2ef9 e43d ffff ff3d
00000210: 4a51 da3d ef5b f13d 3acd 933e eb05 513e
00000220: eed4 cd3d e644 c33d 8c2e ba3d 4a51 da3d
00000230: 6417 fc3d eed4 cd3d 6417 fc3d 6a41 323e
00000240: 6417 fc3d ef5b f13d 1fa6 183e cfe0 d73d
00000250: ef5b f13d eed4 cd3d 3a8e e33d 2ef9 e43d
00000260: a532 043e 68c8 f43d 2ef9 e43d e644 c33d
00000270: cfe0 d73d eb05 513e 4a51 da3d ef5b f13d
00000280: 6417 fc3d 6a41 323e 2b64 e93d 6417 fc3d
00000290: eed4 cd3d a311 453e 4859 0b3e ee5b 713e
000002a0: b301 1e3e aaaa 2a3e baf4 3a3e 3acd 933e
000002b0: 9be8 213e f304 353e ee5b 713e 2ef9 e43d
000002c0: a532 043e cdcc cc3d 2ef9 e43d cfe0 d73d
000002d0: cfe0 d73d e644 c33d baf4 ba3d 9be8 213e
000002e0: 9be8 213e 3acd 133e b301 1e3e 2ef9 e43d
000002f0: cfe0 d73d e644 c33d cfe0 d73d baf4 ba3d
00000300: 68c8 f43d baf4 3a3e c2d0 103e 78d6 083e
00000310: ef5b f13d ef5b f13d 4a51 da3d eb05 d13d
00000320: 0b03 013e 1fa6 183e 3a8e e33d eed4 cd3d
00000330: a311 c53d eed4 cd3d 0b03 013e 1fa6 183e
00000340: a311 c53d 7d13 0a3e 2b64 e93d 6417 fc3d
00000350: 2b64 e93d 6a41 b23d a532 043e ee5b f13d
00000360: 3acd 133e ee5b f13d 3acd 133e a532 843e
00000370: cccc 4c3e 2ef9 643e 2ef9 643e 3acd 933e
00000380: 6d16 2d3e 2649 123e 6d16 2d3e 78d6 883e
00000390: b301 1e3e 8374 5f3e b301 1e3e aaaa 2a3e
000003a0: 6d16 2d3e 9084 413e b301 1e3e aaaa 2a3e
000003b0: b301 1e3e 2ef9 643e b301 1e3e baf4 3a3e
000003c0: eb05 513e b301 1e3e b301 1e3e 6d16 2d3e
000003d0: aaaa 2a3e 2ef9 643e 6d16 2d3e b301 1e3e
000003e0: aaaa 2a3e 6d16 2d3e b301 1e3e ee5b 713e
000003f0: aaaa aa3e a532 843e f304 353e 4a51 da3d
0.17677669 0.10660036 0.11785113 0.1118034 0.12499999 0.10660036 0.11785113 0.28867513
0.20412414 0.10050379 0.09534626 0.09090909 0.10660036 0.12309149 0.10050379 0.12309149
0.17407766 0.12309149 0.11785113 0.1490712 0.10540926 0.11785113 0.10050379 0.11111112
0.1118034 0.12909944 0.11952287 0.1118034 0.09534626 0.10540926 0.20412414 0.10660036
0.11785113 0.12309149 0.17407766 0.11396059 0.12309149 0.10050379 0.19245009 0.13608277
0.23570225 0.15430336 0.16666666 0.18257418 0.28867513 0.15811388 0.17677669 0.23570225
0.1118034 0.12909944 0.1 0.1118034 0.10540926 0.10540926 0.09534626 0.09128709
0.15811388 0.15811388 0.14433756 0.15430336 0.1118034 0.10540926 0.09534626 0.10540926
0.09128709 0.11952287 0.18257418 0.14142135 0.13363063 0.11785113 0.11785113 0.10660036
0.10206207 0.12598817 0.1490712 0.11111112 0.10050379 0.096225046 0.10050379 0.12598817
0.1490712 0.096225046 0.13483997 0.11396059 0.12309149 0.11396059 0.08703883 0.12909944
0.11785112 0.14433756 0.11785112 0.14433756 0.2581989 0.19999999 0.2236068 0.2236068
0.28867513 0.16903086 0.14285716 0.16903086 0.26726127 0.15430336 0.2182179 0.15430336
0.16666666 0.16903086 0.18898225 0.15430336 0.16666666 0.15430336 0.2236068 0.15430336
0.18257418 0.20412414 0.15430336 0.15430336 0.16903086 0.16666666 0.2236068 0.16903086
0.15430336 0.16666666 0.16903086 0.15430336 0.23570225 0.3333333 0.2581989 0.17677669
0.10660036 0.11785113 0.1118034 0.12499999 0.10660036 0.11785113 0.28867513 0.20412414
0.10050379 0.09534626 0.09090909 0.10660036 0.12309149 0.10050379 0.12309149 0.17407766
0.12309149 0.11785113 0.1490712 0.10540926 0.11785113 0.10050379 0.11111112 0.1118034
0.12909944 0.11952287 0.1118034 0.09534626 0.10540926 0.20412414 0.10660036 0.11785113
0.12309149 0.17407766 0.11396059 0.12309149 0.10050379 0.19245009 0.13608277 0.23570225
0.15430336 0.16666666 0.18257418 0.28867513 0.15811388 0.17677669 0.23570225 0.1118034
0.12909944 0.1 0.1118034 0.10540926 0.10540926 0.09534626 0.09128709 0.15811388
0.15811388 0.14433756 0.15430336 0.1118034 0.10540926 0.09534626 0.10540926 0.09128709
0.11952287 0.18257418 0.14142135 0.13363063 0.11785113 0.11785113 0.10660036 0.10206207
0.12598817 0.1490712 0.11111112 0.10050379 0.096225046 0.10050379 0.12598817 0.1490712
0.096225046 0.13483997 0.11396059 0.12309149 0.11396059 0.08703883 0.12909944 0.11785112
0.14433756 0.11785112 0.14433756 0.2581989 0.19999999 0.2236068 0.2236068 0.28867513
0.16903086 0.14285716 0.16903086 0.26726127 0.15430336 0.2182179 0.15430336 0.16666666
0.16903086 0.18898225 0.15430336 0.16666666 0.15430336 0.2236068 0.15430336 0.18257418
0.20412414 0.15430336 0.15430336 0.16903086 0.16666666 0.2236068 0.16903086 0.15430336
0.16666666 0.16903086 0.15430336 0.23570225 0.3333333 0.2581989 0.17677669 0.10660036

weight f4 [32, 32]
00000000: 7e7e a039 f378 0000 2c0d d699 bf1e e134
00000010: 3d17 84b6 8f6f 1c3a 95a2 9997 9672 bb32
00000020: bf7f 29ac 8b9e 063a c05f c533 fef8 038e
00000030: d9f5 0e2f 385c 609c c6f9 e033 1b9e 0000
00000040: 0548 0000 5c82 6f18 4cf4 d918 7ff9 ad38
00000050: e13d 1bad 8293 ef18 8e25 97af 11dd 422f
00000060: b3f8 38bb d45f 79b0 257b 46b1 262c 4f16
00000070: 6005 121a 4327 3f31 f33f 873a 7c8a d232
00000080: 0a90 7238 0a94 a3b7 161c 2aaf 7813 4531
00000090: 5ca4 71ad 9152 963a eb4a dd34 1f63 6986
000000a0: 3dc9 c8ae 3ac7 5ab8 50df d739 5f19 8802
000000b0: 938a cd2f 70dd 3030 fcf0 0837 04cb b22f
000000c0: b61b e9ac 4337 fa36 57a8 b332 cb3e a9b1
000000d0: 4be2 0936 5991 8a31 e2b1 5ab2 4493 10ae
000000e0: c1c4 013a 4b35 6132 35f4 4a26 b928 4d3a
000000f0: 163d 7639 646a aab8 bb4b 4cba 0c34 c3b4
00000100: 30ca 06ad 2e8a 0538 080b 23ac f19d 1bae
00000110: 1f0b 2baf a35f 03bc 1273 0eb0 c806 0080
00000120: 1582 8332 537c 2caf 84c6 cfae ed47 a700
00000130: 3924 67b9 a1bc 1231 3bc1 06b5 9188 d739
00000140: ba98 6bb8 4eae a5ad bd8b aeb2 456f 6c2f
00000150: 5c1c 6aad b5ca 6c97 1dc7 0924 e9e4 0f2a
00000160: 4d38 293c d62d bdb0 fba5 b5b5 75fd a635
00000170: 46b9 7435 7aa4 0331 236a c7ba 7888 fdb7
00000180: aef1 f9b0 14c0 c7b1 b93a 1eae c43f 2d29
00000190: 5f38 0100 bdac b338 0242 0c37 caba e5a8
000001a0: ac88 c3b5 967a 0000 c3c8 ffb8 6bd8 99ad
000001b0: d4c0 66b9 922f 2c36 0adf 023b 6445 0331
000001c0: 3958 9137 ad7b 17b4 8a0b 6138 e643 9eb6
000001d0: e0ed 66b5 7bab e539 a2d2 1620 e7ad 1f37
000001e0: a2e3 2838 0a36 93b3 96bc 37b4 718b 20a7
000001f0: b1bf 963a 308c 491e 5ebd 05b8 4d08 97ab
00000200: f553 dfaf bc1d 9b37 3eb1 68a6 29cd d434
00000210: f3c5 0433 3c00 33b9 081b 4a30 02aa 783a
00000220: 0a30 a332 e707 8d37 2cca 6e37 5cb6 10af
00000230: c861 aa29 ad4b 943a f778 abb1 3ce0 b3ae
00000240: dd20 29af 03a6 b62e a6c9 b3b8 3d9e 0000
00000250: 074c 35af 41f1 d1b6 63d7 1ab8 d49c 17a7
00000260: 523b 5eb9 a287 b432 03c4 0000 686a ee22
00000270: 5b14 ddb7 09fb 32ae 6399 2c39 5183 78b3
00000280: eb4c 1832 36fd b5b1 7e31 0db8 919f ee35
00000290: 2d4e e6b3 7e5e d932 c726 4e2d 6873 8307
000002a0: b24c 42b8 a77e 2a2f 2397 3fb5 be71 5b31
000002b0: c980 69b2 1b17 43b1 2381 81b6 de4f ee2f
000002c0: d4cd 9631 f908 38ad b148 0a3b f954 2235
000002d0: 0ada ba37 fba5 9b2f c20e a89c 36d9 01b8
000002e0: 1b40 7333 10da cb35 a9a4 0db1 e9ad f632
000002f0: f142 ceaa f695 4c37 0484 6ab3 efcb bb37
00000300: 8bbd e235 7c72 08b4 840e c5b7 cfeb 21af
00000310: 2a57 4732 afd2 3632 912b ae2d 2734 6600
00000320: 0ef5 82ad 16e5 9c2d 7546 1b00 b7de d136
00000330: 52d2 b236 6782 1ab5 27f4 0700 134b 9cb4
00000340: 74ef 5936 fe98 0631 dd69 d6b6 c047 e6b9
00000350: 4791 a633 1b58 682e fa32 5639 c4d5 0cb1
00000360: 68e6 a6b0 9b3c f62d 9067 e694 4ffb 0080
00000370: bdc7 162d b65e 6780 dd34 8636 8a53 47b1
00000380: f44c 00b2 1001 4133 9de5 1f96 fba4 30b9
00000390: 708d a036 13c5 7a30 c6b6 e6b6 705e 7233
000003a0: 2b4a 34b1 eb0c bd32 e205 b738 51a8 00b3
000003b0: fed8 9136 ba11 0d2f caae 3933 ba81 1730
000003c0: 19bd 3536 4734 412b b31d 4939 b815 c2b5
000003d0: 41e8 37b4 24f0 8d9d cc1e f4a7 626f 392a
000003e0: 6d8a 342b 1fac 38b0 15c6 3eb5 f1c3 2431
000003f0: da52 9795 160c f8ae 9ee9 61b9 bfb9 21a9
0.00030611822 4.3388e-41 -2.2132401e-23 4.1931887e-07 -3.936612e-06 0.0005967551 -9.928435e-25 2.1821773e-08
-2.4087258e-12 0.0005135319 9.190944e-08 -1.6266882e-30 1.3002167e-10 -7.4234573e-22 1.04762464e-07 5.6718e-41
2.5836e-41 3.095584e-24 5.6339862e-24 8.295755e-05 -8.82447e-12 6.1928997e-24 -2.7493424e-10 1.7722736e-10
-0.0028224408 -9.072185e-10 -2.8882792e-09 1.6735258e-25 3.0196434e-23 2.7816476e-09 0.0010318741 2.4510193e-08
5.7831443e-05 -1.950005e-05 -1.5471388e-10 2.867834e-09 -1.3735759e-11 0.0011468699 4.1218968e-07 -4.3895252e-35
-9.130694e-11 -5.2160794e-05 0.00041174376 1.9997966e-37 3.7387746e-10 6.434311e-10 8.16234e-06 3.2522263e-10
-6.625335e-12 7.457014e-06 2.0914895e-08 -4.925686e-09 2.054631e-06 4.0328527e-09 -1.2729716e-08 -3.2872607e-11
0.0004950278 1.3108841e-08 7.041379e-16 0.00078261975 0.00023483144 -8.1260485e-05 -0.0007793267 -3.635945e-07
-7.661913e-12 3.183836e-05 -2.3169817e-12 -3.53832e-11 -1.555631e-10 -0.008018407 -5.1822824e-10 -2.433e-42
1.5309562e-08 -1.5687478e-10 -9.4485336e-11 1.536233e-38 -0.0002204337 2.135302e-09 -5.020008e-07 0.00041109746
-5.6170604e-05 -1.8835735e-11 -2.0319812e-08 2.1503606e-10 -1.3307657e-11 -7.6511565e-25 2.9875795e-17 1.278037e-13
0.010328365 -1.3764587e-09 -1.3533858e-06 1.244173e-06 9.116669e-07 1.9156503e-09 -0.0015214126 -3.0223498e-05
-1.8185824e-09 -5.813499e-09 -3.5977197e-11 3.8469025e-14 1.12058e-40 8.56756e-05 8.360019e-06 -2.5505114e-14
-1.4568409e-06 4.3976e-41 -0.00012196742 -1.7490195e-11 -0.00022006343 2.5657687e-06 0.0019969367 1.9102453e-09
1.7326429e-05 -1.4107964e-07 5.3654927e-05 -4.7166714e-06 -8.602783e-07 0.00043806047 1.2775187e-19 9.517628e-06
4.026632e-05 -6.8550506e-08 -1.711181e-07 -2.2280052e-15 0.001150122 1.06698415e-20 -3.1886033e-05 -1.0731499e-12
-4.062312e-10 1.8491286e-05 -8.0731377e-16 3.963735e-07 3.091368e-08 -0.00017070858 7.3525586e-10 0.00094857824
1.8997543e-08 1.681219e-05 1.4232977e-05 -1.3161511e-10 7.566479e-14 0.0011314057 -4.990507e-09 -8.1798096e-11
-1.5382136e-10 8.3058914e-11 -8.572945e-05 5.6765e-41 -1.6488864e-10 -6.256771e-06 -3.6917056e-05 -2.1040476e-15
-0.00021193668 2.1016437e-08 7.0316e-41 6.462269e-18 -2.6354732e-05 -4.0695478e-11 0.00016460339 -5.786143e-08
8.865054e-09 -5.29658e-09 -3.3663113e-05 1.7778822e-06 -1.072443e-07 2.5305095e-08 1.1718355e-11 1.977852e-34
-4.6324632e-05 1.5506406e-10 -7.137298e-07 3.193335e-09 -1.3591667e-08 -2.8389369e-09 -3.859533e-06 4.3348697e-10
4.3889745e-09 -1.0461181e-11 0.0021100456 6.0473354e-07 2.227446e-05 2.8312272e-10 -1.1121122e-21 -3.095829e-05
5.663615e-08 1.5188143e-06 -2.06118e-09 2.8717254e-08 -3.66394e-13 1.2194263e-05 -5.4602438e-08 2.2387101e-05
1.6893476e-06 -1.2707636e-07 -2.349099e-05 -1.4726641e-10 1.1603143e-08 1.0641698e-08 1.9800857e-11 9.38593e-39
-1.4888115e-11 1.7836881e-11 2.504834e-39 6.254613e-06 5.329298e-06 -5.755923e-07 7.30434e-40 -2.9111888e-07
3.24749e-06 1.9586532e-09 -6.390021e-06 -0.00043922476 7.756403e-08 5.2828946e-11 0.0002042762 -2.0494193e-09
-1.2143575e-09 2.7993876e-11 -2.3264913e-26 -9.0153e-41 8.570864e-12 -9.493032e-39 3.9996653e-06 -2.9005798e-09
-7.468078e-09 4.493728e-08 -1.2916371e-25 -0.00016846128 4.784837e-06 9.122953e-10 -6.875812e-06 5.6430906e-08
-2.6235607e-09 2.200837e-08 8.727216e-05 -2.9955405e-08 4.346598e-06 1.2830173e-10 4.323264e-08 5.511783e-10
2.708117e-06 6.8639923e-13 0.00019179918 -1.4460447e-06 -1.7127697e-07 -3.757069e-21 -6.7756995e-15 1.6469944e-13
6.414095e-13 -6.718341e-10 -7.1068763e-07 2.397652e-09 -6.111913e-26 -1.1279881e-10 -0.00021544701 -3.591029e-14

bias f4 [32]
00000000: d548 45b8 934c bebc bca2 18bd f420 8bb7
00000010: 5372 03ba 1725 363e 57f5 66bd cbf3 85b5
00000020: 4e34 9eb5 4ce1 a9b8 3b1e 59bd a885 6cb6
00000030: be35 97b8 5557 d0b3 1022 39bd 6f0d f1b8
00000040: 7230 9ab3 d965 81be 79c0 f6b4 d9a7 87bd
00000050: 1acb 0cbd 4b0f 15b4 150f 30b4 fed1 abb3
00000060: 55d7 403e 0a44 e6b3 d1f7 f0b9 014b 03b7
00000070: de85 50bc a43a 20ba 5793 173e 1410 3bb6
-4.703629e-05 -0.023229873 -0.03726457 -1.6585436e-05 -0.0005014289 0.17787586 -0.056386318 -9.980225e-07
-1.178714e-06 -8.100513e-05 -0.053007346 -3.5244539e-06 -7.210251e-05 -9.7016404e-08 -0.0451985 -0.00011494278
-7.179996e-08 -0.25273016 -4.5961113e-07 -0.06623811 -0.03437338 -1.388227e-07 -1.6396764e-07 -8.0010054e-08
0.18832143 -1.0722586e-07 -0.00045961005 -7.825672e-06 -0.012727229 -0.0006112254 0.148023 -2.787453e-06

cached_result f4 [11174]
00000000: f304 353e 4a51 da3d ef5b f13d 2ef9 e43d
00000010: ffff ff3d 4a51 da3d ef5b f13d 3acd 933e
00000020: eb05 513e eed4 cd3d e644 c33d 8c2e ba3d
00000030: 4a51 da3d 6417 fc3d eed4 cd3d 6417 fc3d
00000040: 6a41 323e 6417 fc3d ef5b f13d 1fa6 183e
00000050: cfe0 d73d ef5b f13d eed4 cd3d 3a8e e33d
00000060: 2ef9 e43d a532 043e 68c8 f43d 2ef9 e43d
00000070: e644 c33d cfe0 d73d eb05 513e 4a51 da3d
00000080: ef5b f13d 6417 fc3d 6a41 323e 2b64 e93d
00000090: 6417 fc3d eed4 cd3d a311 453e 4859 0b3e
000000a0: ee5b 713e b301 1e3e aaaa 2a3e baf4 3a3e
000000b0: 3acd 933e 9be8 213e f304 353e ee5b 713e
000000c0: 2ef9 e43d a532 043e cdcc cc3d 2ef9 e43d
000000d0: cfe0 d73d cfe0 d73d e644 c33d baf4 ba3d
000000e0: 9be8 213e 9be8 213e 3acd 133e b301 1e3e
000000f0: 2ef9 e43d cfe0 d73d e644 c33d cfe0 d73d
00000100: baf4 ba3d 68c8 f43d baf4 3a3e c2d0 103e
00000110: 78d6 083e ef5b f13d ef5b f13d 4a51 da3d
00000120: eb05 d13d 0b03 013e 1fa6 183e 3a8e e33d
00000130: eed4 cd3d a311 c53d eed4 cd3d 0b03 013e
00000140: 1fa6 183e a311 c53d 7d13 0a3e 2b64 e93d
00000150: 6417 fc3d 2b64 e93d 6a41 b23d a532 043e
00000160: ee5b f13d 3acd 133e ee5b f13d 3acd 133e
00000170: a532 843e cccc 4c3e 2ef9 643e 2ef9 643e
00000180: 3acd 933e 6d16 2d3e 2649 123e 6d16 2d3e
00000190: 78d6 883e b301 1e3e 8374 5f3e b301 1e3e
000001a0: aaaa 2a3e 6d16 2d3e 9084 413e b301 1e3e
000001b0: aaaa 2a3e b301 1e3e 2ef9 643e b301 1e3e
000001c0: baf4 3a3e eb05 513e b301 1e3e b301 1e3e
000001d0: 6d16 2d3e aaaa 2a3e 2ef9 643e 6d16 2d3e
000001e0: b301 1e3e aaaa 2a3e 6d16 2d3e b301 1e3e
000001f0: ee5b 713e aaaa aa3e a532 843e f304 353e
00000200: 4a51 da3d ef5b f13d 2ef9 e43d ffff ff3d
00000210: 4a51 da3d ef5b f13d 3acd 933e eb05 513e
00000220: eed4 cd3d e644 c33d 8c2e ba3d 4a51 da3d
00000230: 6417 fc3d eed4 cd3d 6417 fc3d 6a41 323e
00000240: 6417 fc3d ef5b f13d 1fa6 183e cfe0 d73d
00000250: ef5b f13d eed4 cd3d 3a8e e33d 2ef9 e43d
00000260: a532 043e 68c8 f43d 2ef9 e43d e644 c33d
00000270: cfe0 d73d eb05 513e 4a51 da3d ef5b f13d
00000280: 6417 fc3d 6a41 323e 2b64 e93d 6417 fc3d
00000290: eed4 cd3d a311 453e 4859 0b3e ee5b 713e
000002a0: b301 1e3e aaaa 2a3e baf4 3a3e 3acd 933e
000002b0: 9be8 213e f304 353e ee5b 713e 2ef9 e43d
000002c0: a532 043e cdcc cc3d 2ef9 e43d cfe0 d73d
000002d0: cfe0 d73d e644 c33d baf4 ba3d 9be8 213e
000002e0: 9be8 213e 3acd 133e b301 1e3e 2ef9 e43d
000002f0: cfe0 d73d e644 c33d cfe0 d73d baf4 ba3d
00000300: 68c8 f43d baf4 3a3e c2d0 103e 78d6 083e
00000310: ef5b f13d ef5b f13d 4a51 da3d eb05 d13d
00000320: 0b03 013e 1fa6 183e 3a8e e33d eed4 cd3d
00000330: a311 c53d eed4 cd3d 0b03 013e 1fa6 183e
00000340: a311 c53d 7d13 0a3e 2b64 e93d 6417 fc3d
00000350: 2b64 e93d 6a41 b23d a532 043e ee5b f13d
00000360: 3acd 133e ee5b f13d 3acd 133e a532 843e
00000370: cccc 4c3e 2ef9 643e 2ef9 643e 3acd 933e
00000380: 6d16 2d3e 2649 123e 6d16 2d3e 78d6 883e
00000390: b301 1e3e 8374 5f3e b301 1e3e aaaa 2a3e
000003a0: 6d16 2d3e 9084 413e b301 1e3e aaaa 2a3e
000003b0: b301 1e3e 2ef9 643e b301 1e3e baf4 3a3e
000003c0: eb05 513e b301 1e3e b301 1e3e 6d16 2d3e
000003d0: aaaa 2a3e 2ef9 643e 6d16 2d3e b301 1e3e
000003e0: aaaa 2a3e 6d16 2d3e b301 1e3e ee5b 713e
000003f0: aaaa aa3e a532 843e f304 353e 4a51 da3d
0.17677669 0.10660036 0.11785113 0.1118034 0.12499999 0.10660036 0.11785113 0.28867513
0.20412414 0.10050379 0.09534626 0.09090909 0.10660036 0.12309149 0.10050379 0.12309149
0.17407766 0.12309149 0.11785113 0.1490712 0.10540926 0.11785113 0.10050379 0.11111112
0.1118034 0.12909944 0.11952287 0.1118034 0.09534626 0.10540926 0.20412414 0.10660036
0.11785113 0.12309149 0.17407766 0.11396059 0.12309149 0.10050379 0.19245009 0.13608277
0.23570225 0.15430336 0.16666666 0.18257418 0.28867513 0.15811388 0.17677669 0.23570225
0.1118034 0.12909944 0.1 0.1118034 0.10540926 0.10540926 0.09534626 0.09128709
0.15811388 0.15811388 0.14433756 0.15430336 0.1118034 0.10540926 0.09534626 0.10540926
0.09128709 0.11952287 0.18257418 0.14142135 0.13363063 0.11785113 0.11785113 0.10660036
0.10206207 0.12598817 0.1490712 0.11111112 0.10050379 0.096225046 0.10050379 0.12598817
0.1490712 0.096225046 0.13483997 0.11396059 0.12309149 0.11396059 0.08703883 0.12909944
0.11785112 0.14433756 0.11785112 0.14433756 0.2581989 0.19999999 0.2236068 0.2236068
0.28867513 0.16903086 0.14285716 0.16903086 0.26726127 0.15430336 0.2182179 0.15430336
0.16666666 0.16903086 0.18898225 0.15430336 0.16666666 0.15430336 0.2236068 0.15430336
0.18257418 0.20412414 0.15430336 0.15430336 0.16903086 0.16666666 0.2236068 0.16903086
0.15430336 0.16666666 0.16903086 0.15430336 0.23570225 0.3333333 0.2581989 0.17677669
0.10660036 0.11785113 0.1118034 0.12499999 0.10660036 0.11785113 0.28867513 0.20412414
0.10050379 0.09534626 0.09090909 0.10660036 0.12309149 0.10050379 0.12309149 0.17407766
0.12309149 0.11785113 0.1490712 0.10540926 0.11785113 0.10050379 0.11111112 0.1118034
0.12909944 0.11952287 0.1118034 0.09534626 0.10540926 0.20412414 0.10660036 0.11785113
0.12309149 0.17407766 0.11396059 0.12309149 0.10050379 0.19245009 0.13608277 0.23570225
0.15430336 0.16666666 0.18257418 0.28867513 0.15811388 0.17677669 0.23570225 0.1118034
0.12909944 0.1 0.1118034 0.10540926 0.10540926 0.09534626 0.09128709 0.15811388
0.15811388 0.14433756 0.15430336 0.1118034 0.10540926 0.09534626 0.10540926 0.09128709
0.11952287 0.18257418 0.14142135 0.13363063 0.11785113 0.11785113 0.10660036 0.10206207
0.12598817 0.1490712 0.11111112 0.10050379 0.096225046 0.10050379 0.12598817 0.1490712
0.096225046 0.13483997 0.11396059 0.12309149 0.11396059 0.08703883 0.12909944 0.11785112
0.14433756 0.11785112 0.14433756 0.2581989 0.19999999 0.2236068 0.2236068 0.28867513
0.16903086 0.14285716 0.16903086 0.26726127 0.15430336 0.2182179 0.15430336 0.16666666
0.16903086 0.18898225 0.15430336 0.16666666 0.15430336 0.2236068 0.15430336 0.18257418
0.20412414 0.15430336 0.15430336 0.16903086 0.16666666 0.2236068 0.16903086 0.15430336
0.16666666 0.16903086 0.15430336 0.23570225 0.3333333 0.2581989 0.17677669 0.10660036

weight f4 [32, 3]
00000000: 054e d73b af2d 6cb6 ea4d e9ba f735 41be
00000010: b56d e93e 0e10 89be d891 5535 bf0f db34
00000020: 0a95 8cb4 c09b 0cbd 5782 5f3b 08a9 113c
00000030: b3f9 c6b2 b487 d0b2 849f 04b2 0ece 9c30
00000040: fedd 5b2e 70c7 6db0 77d4 d933 246b dfb4
00000050: b02a 1435 a2e3 8e32 479c aab3 b21f c2b2
00000060: 6998 cd30 5703 6ca9 b265 1fb5 af6d 9a34
00000070: 4f58 fab5 00cc 4337 3ac5 0138 ca72 f1b1
00000080: bcb1 f736 bc21 04b4 5cf2 55b5 151d 513a
00000090: cbf5 a73a bf9a e5b7 87f3 ce39 5b5e 592e
000000a0: 1648 8533 1883 29b8 e480 2436 947f a135
000000b0: 5c2e aab6 85a3 343b 9194 4f3b 50bd 98bb
000000c0: b8b6 ed3e 4142 7ebe 4489 53be f00b f435
000000d0: b352 b4b1 4aa2 0538 9369 903b f879 02b5
000000e0: 6bd6 6dba a6e3 4fab f19a 92b3 2b10 9fb4
000000f0: 3bb9 9c33 f0d0 20b1 5a04 f007 2187 7638
00000100: c076 5e37 d6f0 c3b8 b003 c2b7 0589 80b8
00000110: 12a0 6336 542e 8db8 b0a6 0e31 3dc7 9d2f
00000120: e198 1134 9173 a231 26d4 dab1 627a 4035
00000130: 9d2a 02aa 618a 9faa d859 05bc 1bf5 a63a
00000140: 2e15 0f38 3114 1ebe d215 513e 5957 a3bd
00000150: 1ca9 63be c5f9 53be 913a dc3e 5a9d 47b2
00000160: af87 60b3 220d 8eb6 0b72 04bb 5ef0 6138
00000170: 9a8b ea38 ce81 8eb4 f683 45b5 3aad 33b5
0.00657058 -3.5193332e-06 -0.001779971 -0.18868242 0.45591512 -0.2677006 7.9560914e-07 4.0803386e-07
-2.6185472e-07 -0.034328222 0.0034104788 0.008890398 -2.3163784e-08 -2.4276098e-08 -7.719681e-09 1.1409058e-09
4.9992004e-11 -8.6503515e-10 1.0143497e-07 -4.1614942e-07 5.5196415e-07 1.6634491e-08 -7.9446686e-08 -2.2598986e-08
1.4959031e-09 -5.2405424e-14 -5.93801e-07 2.876454e-07 -1.8652153e-06 1.1670403e-05 3.093968e-05 -7.027073e-09
7.3818646e-06 -1.230573e-07 -7.970136e-07 0.0007977051 0.0012814341 -2.7370987e-05 0.00039472824 4.9423892e-11
6.2064075e-08 -4.041483e-05 2.4512929e-06 1.2032565e-06 -5.0717917e-06 0.0027563286 0.0031674246 -0.0046612397
0.46428466 -0.24829961 -0.20657831 1.8182891e-06 -5.2480913e-09 3.1860814e-05 0.0044071167 -4.860626e-07
-0.0009072783 -7.38571e-13 -6.8268385e-08 -2.9627822e-07 7.298009e-08 -2.3401832e-09 3.6113744e-34 5.877682e-05
1.325988e-05 -9.343184e-05 -2.312832e-05 -6.1290375e-05 3.391881e-06 -6.732033e-05 2.075847e-09 2.86997e-10
1.3559794e-07 4.727959e-09 -6.3687535e-09 7.1703664e-07 -1.1561104e-13 -2.8340093e-13 -0.008139096 0.0012737842
3.4113582e-05 -0.1543739 0.2041848 -0.079756446 -0.22232479 -0.20700748 0.43013433 -1.1619102e-08
-5.2277468e-08 -4.2334586e-06 -0.0020209576 5.386804e-05 0.00011183992 -2.6544006e-07 -7.358025e-07 -6.6934774e-07

bias f4 [3]
00000000: a39a 873c 2092 1f3c 2749 5f3b
0.016553229 0.009739429 0.0034070702
